snake-game/model/model.pth (torch, 16787 bytes, 4 tensors)

linear1.weight f4 [256, 11]
000000 e5 7e e4 bc 34 8d a3 bd 17 cf 4d 3e 0b 6c e8 bc
       -0.02789254 -0.07985917 0.2009853 -0.028371831
000010 df 69 fb 3d 37 10 a6 3d af cd 55 3e 75 6a cd 3e
       0.12276053 0.081085615 0.20879243 0.40120283
000020 76 8d a7 3e bb 5b b3 3d 30 2d 6e bd 5e 80 9f 3e
       0.32725114 0.087577306 -0.058148563 0.31152624
000030 cb 70 85 3e 1a 4e bd 3e 13 da 03 3d 95 91 c2 bd
       0.26062617 0.3697365 0.032190394 -0.09500424
000040 40 49 16 3e 08 ab 97 bd 44 eb 22 3e fa 6c a8 3e
       0.1467638 -0.074056685 0.15910059 0.32895643
000050 13 f8 c2 3e 2a 2a 9f 3e d8 c0 d7 be 2a 91 52 bc
       0.3807989 0.31086856 -0.42139316 -0.012851993
000060 50 d3 6c be 74 f3 f4 bd f0 d7 09 be 1c c4 6f be
       -0.23127484 -0.119604975 -0.1346128 -0.23414654
000070 29 84 2a be aa ac 72 3e 28 76 48 3e 70 25 0c 3e
       -0.16651978 0.23698679 0.19576323 0.13686156
000080 a5 5a c6 3d 68 d1 a4 be f2 8a c5 be fa 99 88 3e
       0.09685258 -0.32191014 -0.3858257 0.26679975
000090 b9 a1 a9 3e 3c 1b ae 3e 3d f6 39 3e ad 9a 1b be
       0.33131197 0.34005153 0.18160339 -0.15195723
0000a0 4c 87 41 be 95 ed 4f be 5d 5d 23 bc af 14 8f 3e
       -0.18899268 -0.20305474 -0.00997099 0.27945468
0000b0 ff 5c 9c bd 3d cf 21 3e b7 ee 1c be 62 1f c8 be
       -0.07634925 0.15801711 -0.15325437 -0.39086443
0000c0 f8 8d 3a 3e fa ef b7 3e e8 12 12 bf 21 7a 61 be
       0.1821822 0.35925275 -0.570601 -0.22019245
0000d0 01 59 1c bf de 2d 25 3e e4 07 0b bf 36 a8 3f 3e
       -0.6107331 0.16130778 -0.54308915 0.18716511
0000e0 ad f3 29 be a4 84 e0 bd 6f 77 01 3e d4 93 60 bd
       -0.16596861 -0.10962799 0.12643217 -0.05482848
0000f0 83 cc 34 3e 97 92 c9 bd 3f 67 8c bd b4 db 0c be
       0.1765614 -0.09842413 -0.0685563 -0.13755685
000100 1a 3d 16 be ab b4 27 be ce 6d 14 be 98 27 d6 bd
       -0.14671746 -0.16377513 -0.14495012 -0.10456771
000110 21 69 88 3e c0 32 85 be ab 22 14 be 92 ad cd 3e
       0.26642707 -0.26015282 -0.1446635 0.40171486
000120 3d cb 8e be e7 a2 cb bd f0 28 94 3e 4b 16 a8 be
       -0.27889434 -0.099431805 0.28937483 -0.32829508
000130 8d e4 a6 3e 42 e1 a1 3e 94 b6 bb 3d 94 51 24 be
       0.32596245 0.3161717 0.091656834 -0.16046745
000140 72 ec 56 3d 88 a5 1d 3e 84 26 c2 3d 8e 63 86 3d
       0.052471586 0.15395176 0.094800025 0.06561957
000150 2b 8b 90 3e 8e 2d ee 3d eb 57 93 bd e7 81 56 be
       0.28231177 0.116297826 -0.071945034 -0.20947991
000160 af cc fb bd 3e 17 ef 3e b0 db de be e4 4a ed 3c
       -0.122949 0.4669742 -0.43526983 0.028966375
000170 c2 44 5e 3d 22 75 46 be 91 18 a1 be 6f 9c 99 3e
       0.05426479 -0.1938062 -0.31464055 0.30002162
000180 ab 0e 30 be 3a 11 cb 3d cc 7d 35 3e 4d 0c 08 bf
       -0.17193095 0.09915395 0.17723769 -0.5314377
000190 7e fe 08 3f aa 3e 25 be 3a e5 a9 3d d3 9f 05 3e
       0.53513324 -0.16137186 0.082956746 0.1304925
0001a0 37 37 0a bc c1 fd 09 be 4c 1e 9f 39 d7 17 5f be
       -0.008436016 -0.13475706 0.00030349416 -0.21786438
0001b0 a5 da 22 3d d1 dd 7c be d8 93 e6 3e 0a c8 8d 3c
       0.039759297 -0.24693991 0.4503467 0.0173073
0001c0 33 02 d4 be f4 86 ae 3e bc 79 97 3e 22 92 7d be
       -0.41407928 0.34087336 0.29585063 -0.24762776
0001d0 78 d3 3d be ab 7b e3 be ef 20 90 be 48 e6 a7 3e
       -0.185377 -0.4443029 -0.28150126 0.32792878
0001e0 6f 94 7b 3e 3d f0 3a be c5 cb 81 be 64 62 5e be
       0.24568342 -0.18255706 -0.25350776 -0.2171722
0001f0 ac 84 56 bd bf e0 72 be 20 26 7d 3c 5e 4d 84 be
       -0.05237262 -0.23718546 0.015450984 -0.25840276
000200 d4 e5 58 3e bf 8f 78 be 31 e7 0e be 3d 57 5a be
       0.21181422 -0.24273585 -0.1395538 -0.21322341
000210 50 16 ba 3e 01 b7 6a 3e 78 99 a3 3e 8e 78 fd bd
       0.36345148 0.22921373 0.31953025 -0.123765096
000220 f0 d2 2a bb 2d 66 23 be 01 69 3a 3d 25 1a 07 3f
       -0.002606567 -0.15956946 0.045510296 0.5277427
000230 34 13 d9 3e f6 15 43 3e 7b 81 aa 3d 19 e4 ab 3e
       0.42397463 0.19051346 0.08325478 0.33572462
000240 1e ac 8e 3e 93 14 10 bf 83 ef 95 be 27 1a 97 bd
       0.2786569 -0.56281394 -0.29284295 -0.07378035
000250 64 d7 8a 3d c1 6e cb bd f4 73 9a 3e 8d eb 12 3e
       0.06779364 -0.09933234 0.3016659 0.14347668
000260 df f1 43 bd a3 c2 92 3d 79 14 d5 3e f8 11 ce bd
       -0.047838088 0.0716603 0.41617182 -0.10062021
000270 62 ab e6 bd 31 fc 8e 3e 05 ba ba 3e 9b b1 75 be
       -0.112631574 0.27926782 0.36470047 -0.23993532
000280 c2 00 c9 be 4f fc b6 be d5 29 e8 be 92 40 16 3e
       -0.3925839 -0.3573937 -0.45344415 0.14673069
000290 88 13 cd 3e 86 52 51 bd c2 1c 7d 3e fc 07 94 3d
       0.40053964 -0.05110409 0.24718001 0.072280854
0002a0 15 52 42 3e f2 4a aa 3e 7e 4f 65 3e 96 97 22 be
       0.18976624 0.33260304 0.22393605 -0.15878138
0002b0 73 dd b4 bd 04 80 c6 3e 74 17 82 be 3f 12 80 3e
       -0.088313006 0.38769543 -0.25408518 0.2501392
0002c0 bf 82 ba 3e 92 6f 5b 3e e7 a6 be 3d b2 ed e5 bd
       0.36427876 0.2142928 0.09309178 -0.112269774
0002d0 e4 68 2f bd 5c 34 6d bd 91 6e 8d 3d 2f ad e1 3e
       -0.04282464 -0.057911262 0.069058545 0.4407744
0002e0 bf a3 57 3e e0 d6 5a 3e 69 33 16 3e 7f f6 78 be
       0.21058558 0.21371031 0.14668049 -0.24312781
0002f0 05 47 e0 3e 38 e7 71 bd 22 ab 79 bd da 49 09 3c
       0.43804184 -0.059058398 -0.06095422 0.008379424
000300 55 33 73 bd 5f 21 9b be c4 74 af 3e cb 2e da 3d
       -0.059375126 -0.30298898 0.34268773 0.10653456
000310 91 f6 c3 3c 6d 71 a2 be f1 ef ab 3e f2 9c e4 be
       0.023921283 -0.31727162 0.33581498 -0.4465099
000320 95 8c 94 3e 00 b9 7f be d1 22 54 be ef 79 51 3e
       0.29013506 -0.24972916 -0.20716406 0.2045667
000330 62 61 ae bd fd a6 91 be 65 90 35 be a3 0d d1 3c
       -0.08514668 -0.28447714 -0.17730863 0.025519198
000340 7b de 0a bd f9 0e 92 bc 59 ae 8a 3e b5 0d 38 3d
       -0.03390358 -0.017829405 0.27086142 0.044934947
000350 e3 20 e4 3d 83 c1 8b be a7 55 f8 3c 54 a1 94 be
       0.11139085 -0.27296075 0.03031428 -0.29029334
000360 e8 4b 56 be d2 1b db 3e 22 69 44 3d 7e 39 5c 3e
       -0.20927393 0.42794663 0.047951825 0.21506307
000370 33 f4 31 bd 4c a3 59 be d4 a8 a3 3e 14 18 cd bd
       -0.043445777 -0.21253699 0.31964743 -0.10014358
000380 a6 f8 99 be d8 aa ab be 4b 5c 77 be bb 38 c2 3e
       -0.30072516 -0.3352878 -0.241563 0.37933907
000390 0b 9d 8b 3e 8c 44 b9 3e b6 27 1f 3e 60 4c 3c 3e
       0.27268252 0.3618511 0.15542492 0.1838851
0003a0 00 8a a0 3c 5a 21 d8 3d 26 50 01 3f a1 68 97 3e
       0.019597054 0.10553236 0.5051292 0.29572013
0003b0 08 39 f2 bd 4f c6 be be 4e e8 0c bf 3a b1 9b be
       -0.11827284 -0.37260672 -0.5504197 -0.3040865
0003c0 73 b3 48 3d df 92 83 3e d8 b6 60 be f3 63 c9 be
       0.04899926 0.2569799 -0.2194475 -0.39334068
0003d0 ed 1d 8b be 20 34 95 3e 8d b6 22 be 18 21 9a be
       -0.2717127 0.2914133 -0.1588995 -0.30103374
0003e0 0d c4 31 be 1f c7 98 bb 4e 2e a3 be 18 3f 74 be
       -0.17359944 -0.004662409 -0.31871265 -0.23852193
0003f0 ff c6 40 3e 95 74 c5 be 8a b4 e2 bd 29 e7 66 3e
       0.18825911 -0.38565508 -0.11069591 0.22549118

linear1.bias f4 [256]
000000 b6 bb 95 bd 61 be 84 be 29 a0 fe bb e0 83 31 be
       -0.07311194 -0.25926498 -0.0077705574 -0.17335463
000010 49 22 5c 3e 6b 6b 69 be 97 24 9b bd e9 96 6c bc
       0.21497454 -0.22794883 -0.07575338 -0.014440277
000020 48 b7 05 bb 2e 0d e2 3e d0 a5 de bd ec 87 71 be
       -0.0020403434 0.4415068 -0.1087147 -0.23587006
000030 d8 2e fa bd b2 9c fe bc 5b 84 02 3d 45 33 68 be
       -0.12215966 -0.031080578 0.031864505 -0.22675808
000040 5d 26 e6 bd 55 e9 8e 3e c4 92 4c 3d 7e b7 2d be
       -0.11237786 0.27912393 0.049944654 -0.16964528
000050 dc 1d 1e bd f8 4b e3 3c 25 cf 5d bd 9b cc e0 bd
       -0.038602695 0.027746186 -0.054152627 -0.109765254
000060 10 61 84 3d 74 cc d7 bd 2f b9 aa be 8b da bf 3e
       0.06463826 -0.10537043 -0.3334441 0.37471423
000070 89 e3 cc 3c d3 6e 88 be 6b 72 5d 3d 12 34 16 be
       0.025010841 -0.26647052 0.054064196 -0.14668301
000080 11 dc bc bd e6 cc b2 3e a7 bb 09 3e af 01 38 be
       -0.09221662 0.3492195 0.1345049 -0.17969392
000090 55 1e 9d be 11 b6 42 be 21 46 79 bd 18 da 0d bd
       -0.30687204 -0.19014765 -0.060857896 -0.03463182
0000a0 12 c5 6b bd 9d 3f a6 bd 49 15 ba 3d 65 b7 40 3e
       -0.057560988 -0.08117602 0.09086091 0.1881996
0000b0 fc ac 43 be 7f 47 75 be 50 3d 2a 3c a8 7e 0d 3e
       -0.19108957 -0.23953055 0.010390595 0.13817847
0000c0 96 f5 31 bb dc e5 51 be c9 e8 af 3e 57 8e 8e be
       -0.0027154437 -0.2049784 0.34357288 -0.27842972
0000d0 4d da c1 3c e7 c0 6a 3e cc b6 98 bb b0 89 e8 3c
       0.023663664 0.22925149 -0.004660463 0.028385967
0000e0 ed 00 89 bc c1 81 5f bd 69 9d 00 3e ca a8 d2 be
       -0.016724074 -0.054567102 0.12560047 -0.411444
0000f0 f3 af 4f be 24 a9 38 bd 72 b9 f5 3e ae 64 6c 3e
       -0.20281963 -0.04508318 0.47993046 0.23085281
000100 9f a5 a4 bd 49 d7 87 be 29 f7 58 be ef 45 f1 bc
       -0.08039402 -0.26531437 -0.21188034 -0.029452292
000110 36 4e 07 bd 33 3b 45 bc 1e 7c f7 bd da 80 28 3d
       -0.033033572 -0.01203804 -0.1208422 0.041138507
000120 59 bb b1 3e 9d 02 83 be 5c 1d bf bd 99 bc 1b 3e
       0.34713247 -0.2558793 -0.09331772 0.15208663
000130 9f 6a a6 be 7a 36 19 3e e4 c5 8e be ba da c8 bd
       -0.3250322 0.14962187 -0.27885354 -0.09807344
000140 0a 50 70 3e 59 81 98 3d 66 6d b5 be 5d 16 ac be
       0.23468032 0.07446546 -0.35435027 -0.33610812
000150 7e d9 eb 3d 81 2a 63 be be de 8e bc ca 12 0b 3d
       0.11516093 -0.22184183 -0.017440196 0.033953466
000160 31 c2 03 be 24 79 e1 39 6f 02 41 be 3d dc 4a be
       -0.12867047 0.000430056 -0.18848585 -0.19810577
000170 3a 0e 14 3d b3 9f 46 be ee 5b ad 3d 3e 1f c2 be
       0.03614638 -0.19396858 0.084648 -0.3791446
000180 70 d1 9a 3e d6 d1 25 be ab 07 85 3e 39 5c 95 3e
       0.30237913 -0.16193327 0.25982413 0.29171923
000190 69 c4 85 be 5f 43 89 be eb a9 e2 3d c3 54 eb 3e
       -0.26126412 -0.26809213 0.110675655 0.45963106
0001a0 6e 4f 95 be a4 1d 2d be 1e a2 70 be 6e 47 cc be
       -0.29162163 -0.16905838 -0.23499343 -0.39898247
0001b0 27 40 03 3f 81 52 2a 3d f7 d9 8f be 72 4b 1b be
       0.51269764 0.041582588 -0.2809598 -0.15165499
0001c0 00 4f 17 be 34 f1 9f bd a5 f1 66 bd e1 08 e6 bc
       -0.1477623 -0.07809678 -0.056382794 -0.028080406
0001d0 92 09 47 3e b9 c5 44 3e 41 ef 93 bc 6c 05 77 bd
       0.19437245 0.1921605 -0.018058421 -0.060307905
0001e0 0e f8 48 3e 6d 58 0b be 91 ee d4 bc f4 a1 13 bc
       0.19625875 -0.1360795 -0.025992664 -0.009010781
0001f0 8e e3 69 3e 24 56 4a 3d 7e 20 b2 bd db fc b5 3e
       0.22840711 0.049398556 -0.08697604 0.35544476
000200 c5 03 83 bd 5e d4 6c 3e 96 f5 5a bd 99 11 d4 3e
       -0.06397203 0.23127887 -0.053456865 0.41419676
000210 04 87 db bd 58 6e e3 bd af a0 6c 3b ca 77 a5 be
       -0.107191116 -0.11105031 0.0036106517 -0.32317954
000220 bf 19 b5 3e 2d 5c 96 be c6 ae 5b be 29 f3 3c be
       0.35371205 -0.293672 -0.2145339 -0.18452133
000230 01 0e 65 bd 22 8e 6f 3d 84 be 49 3e f6 20 27 bd
       -0.05592156 0.058485158 0.19701582 -0.04080292
000240 f8 eb aa 3e 61 61 27 3e ff 71 07 3d ba 7a e8 bd
       0.33383155 0.16345741 0.0330677 -0.11351533
000250 f3 11 6a 3e a1 30 f6 3c 40 bd 60 3d b8 f1 bb 3c
       0.2285841 0.030052485 0.054867983 0.022942409
000260 0b c9 57 be 87 9a f2 3d 11 71 34 bd a6 13 b8 bc
       -0.21072786 0.1184588 -0.04405314 -0.022470307
000270 50 1d 7c 3d cb 6e 05 3a 38 c7 eb bd 62 3f 11 be
       0.061551392 0.0005090057 -0.11512607 -0.14184335
000280 48 b0 17 3c 89 f7 62 3e 20 3d 0b bd 04 e4 96 be
       0.009258337 0.2216474 -0.03399384 -0.29470837
000290 b3 99 ff 3d 09 5b 9c 3e 25 91 be bd 7b e5 72 3c
       0.12480488 0.30538204 -0.09305028 0.01482522
0002a0 f8 48 64 bd 02 db cb bd c5 01 57 3b 8a 21 c8 bd
       -0.05573365 -0.09953882 0.0032807451 -0.09772022
0002b0 35 43 01 bc ea 9e 22 bd 91 f2 b6 bd 78 5d a8 bd
       -0.007889559 -0.039702334 -0.089329846 -0.08220953
0002c0 fa 5c 37 bd e8 ad d4 bc f2 01 3a be ee be c8 bc
       -0.044766404 -0.025961831 -0.18164805 -0.024505105
0002d0 2b 92 a6 be 3a 4f cb bd 6a 38 91 be 7a b0 52 be
       -0.32533392 -0.09927221 -0.28363353 -0.20575133
0002e0 73 31 06 be 37 96 a4 3e 15 3b 16 3f d8 57 72 bd
       -0.13104801 0.32145855 0.586839 -0.059165806
0002f0 36 5c 9c bd af 07 ae 3c 62 df d8 bd f8 d4 71 be
       -0.07634775 0.021243898 -0.10589482 -0.23616397
000300 c3 ee 72 be 6f 9a 67 3b 99 00 36 bc 66 20 d8 bd
       -0.23723893 0.0035339852 -0.011108541 -0.105530545
000310 a5 37 0a be ee 5e 50 be ad 90 34 be bd a2 04 3e
       -0.13497789 -0.20348713 -0.17633314 0.12952705
000320 bf 9b f7 bd 00 2f 83 be 3d 52 a2 bd 17 9f b9 3d
       -0.12090253 -0.25621796 -0.07925842 0.09063547
000330 92 2a ba 3e d4 e3 d4 bd 90 6b 53 3d e6 c5 aa bd
       0.36360604 -0.10395017 0.05161625 -0.083385274
000340 a5 a6 5a 3d d5 6e 1c be 2f 27 77 bd 9c ea 5a be
       0.05338158 -0.15276654 -0.060340103 -0.21378559
000350 68 46 bc 3e 95 31 40 be 35 db 31 3e cd b0 69 3e
       0.36772466 -0.18768914 0.17368777 0.2282135
000360 96 48 3d bd f2 fd f0 bd 2b 95 a8 bd 2a bf ea 3a
       -0.0462118 -0.11767186 -0.082315765 0.0017909755
000370 0d 2b 9a be f2 4b 83 bd 61 78 0c be f3 49 0d bc
       -0.3011097 -0.0641097 -0.13717796 -0.008623588
000380 0c a0 8d bc ad d0 30 be ae b9 a4 be c2 db 9e be
       -0.01728823 -0.17267103 -0.32172912 -0.31027037
000390 b5 da dc 3d ab ad 54 be dd 84 0a bd f4 57 86 be
       0.107839026 -0.20769374 -0.033818115 -0.26238978
0003a0 87 71 a5 be 8c 4b a8 3d f9 44 a0 3e 46 ef 93 3d
       -0.32313177 0.082175344 0.31302622 0.07223372
0003b0 e3 8a 6b 3e 0b dc 5b bc 08 3d 98 bc 23 13 ae 3d
       0.230022 -0.013419162 -0.01858379 0.08499744
0003c0 a4 f4 28 3e 18 84 56 3e 23 6c 0c be 10 c9 ed 3e
       0.16499573 0.20948827 -0.13713126 0.4644246
0003d0 3a 1c 57 be 68 0d 6c be 32 07 0d 3f 60 84 61 3e
       -0.21006861 -0.23051989 0.55089104 0.22023153
0003e0 f1 ff 3e be c4 9c 49 be 80 4e 02 be 0a a5 f1 bd
       -0.18652321 -0.19688708 -0.12725258 -0.11799057
0003f0 0e e5 d0 3d 21 97 c3 3b f2 8f 40 3c 9d f5 4c be
       0.10199939 0.0059689437 0.011753069 -0.20015569

linear2.weight f4 [3, 256]
000000 b1 df dd bc 2a 0b 1b be d1 4a 28 bd 03 69 4f be
       -0.027084203 -0.15140978 -0.041086975 -0.20254903
000010 aa a6 7d 3e b1 94 85 3d 1e 23 ae be 76 fd 07 3d
       0.24770609 0.06522501 -0.34011167 0.033200704
000020 68 d3 19 bd a7 1e 59 3e ec 5c 86 be 2c 7c bd bc
       -0.03755513 0.21203099 -0.2624277 -0.023130499
000030 97 18 20 be 54 ea 33 be d9 ad 15 bf c7 9f 33 bd
       -0.1563438 -0.17569858 -0.58468395 -0.043853547
000040 69 70 7e bd ec e2 d6 3d 5d 0b 53 3d 1d 85 64 be
       -0.06211892 0.10492501 0.05152451 -0.22316404
000050 94 0d ce bd 17 19 2e bf 2c 76 db 3d 59 24 b0 3e
       -0.100611836 -0.68007034 0.10715899 0.3440273
000060 b7 e6 c8 bc af af 1c 3d 62 df 4f bd 7f d2 49 3e
       -0.024524076 0.038253482 -0.050750144 0.19709204
000070 f2 05 e0 bb c8 0b 8f be f1 e8 e2 3e f6 c8 63 bd
       -0.0068366462 -0.27938676 0.44318345 -0.055611573
000080 df b8 07 be 97 a5 e6 3d 82 38 e1 3d 09 48 0c bf
       -0.13254116 0.112620525 0.10997106 -0.54797417
000090 fd c6 0c bf 38 3e c9 be c0 0a c1 be d0 ef f1 bc
       -0.5499113 -0.39305282 -0.37703514 -0.029533297
0000a0 56 85 1f 3e 35 11 09 3e 62 28 4a be a2 8e 7f bd
       0.15578207 0.1338547 -0.19741967 -0.062391885
0000b0 64 72 fb bc a6 3d 8f be 64 51 64 be d5 97 a6 be
       -0.030694194 -0.27976722 -0.22296673 -0.32537714
0000c0 c9 e4 a3 bd de 51 3c be 46 67 a6 3e f3 07 e1 bd
       -0.08002622 -0.18390605 0.32500666 -0.10987844
0000d0 24 e3 b2 bd ed 26 e0 3e 03 87 c6 bd 52 4e 92 3d
       -0.0873473 0.43779698 -0.0969372 0.07143845
0000e0 99 7c 02 bf f9 2c 98 be 94 95 89 3c 50 16 75 bc
       -0.5097137 -0.2972181 0.016794957 -0.014958933
0000f0 f1 e1 98 bb 21 6f f3 3e e8 f3 61 3e f8 2d 5e 3e
       -0.004665606 0.47545722 0.22065699 0.21697223
000100 1c aa 2e be c8 2f 00 3e af 3c 10 be 11 51 1f be
       -0.17057079 0.12518227 -0.14085649 -0.15558268
000110 b1 77 3b 3e b7 fb 4d be e7 cb 85 3e 8b 4e aa 3e
       0.18307377 -0.20115553 0.26132128 0.3326305
000120 0c ad 86 3e f9 2b e4 be a6 35 56 3e 78 3f af 3c
       0.263039 -0.44564798 0.20918903 0.021392569
000130 61 67 24 bd 33 60 56 3d 32 90 88 3e 55 e9 67 bd
       -0.040137652 0.052337836 0.26672512 -0.056619007
000140 6e c0 56 3e 23 49 2f 3d b9 0b 43 be 29 0b f5 bc
       0.20971844 0.042794358 -0.1904744 -0.029912548
000150 7d b5 9f 3e 73 a4 0e be 50 7d e9 bc 0d ee 8c bc
       0.31193152 -0.1392992 -0.028502136 -0.017203355
000160 df 26 a8 bc 3a 78 df bc bb bb 88 bc 5d 8a c4 bd
       -0.020526348 -0.027279008 -0.01669108 -0.09596703
000170 3c 7f d0 3c 7c c6 84 be 10 21 af 3d 31 59 01 bd
       0.025451295 -0.25932682 0.08551228 -0.0315792
000180 f5 c4 90 3e 84 c0 54 be 40 af 6b 3d 13 aa d9 3e
       0.28275266 -0.20776564 0.05754018 0.4251257
000190 5f 92 58 be 1a 37 ec 3c 4c 3d 4e 3e 88 8e b5 3e
       -0.21149586 0.028834868 0.2014057 0.35460305
0001a0 00 b5 a2 3d ef fb df be a5 5b 0c be 6e 87 ba 3d
       0.07944679 -0.43746898 -0.13706835 0.091078624
0001b0 1e 39 52 3e 5f 59 14 bd bb ec f1 3b 36 f0 c7 be
       0.20529601 -0.036218043 0.007382957 -0.39050454
0001c0 bd 0b 18 3e c4 2b 0d 3e 30 1a e5 be 37 47 8a be
       0.14848228 0.13786227 -0.44746542 -0.27007458
0001d0 51 92 31 3d 48 c8 a9 3e 53 fa 75 3e d7 a8 95 3c
       0.04335243 0.33160615 0.24021272 0.018268986
0001e0 21 0f 10 3e 89 31 97 be a2 16 a5 bd e9 cb 4a bd
       0.14068271 -0.2952998 -0.080609575 -0.04951087
0001f0 1f 12 2c 3e 41 44 5d 3e 50 16 ec be 2e c8 6d 3e
       0.16803788 0.21608068 -0.46110773 0.23220894
000200 cc ec b1 3e ca 8d bd 3e 46 5d d6 bd 2d fe c7 3d
       0.34750974 0.3702224 -0.10467009 0.09765277
000210 34 21 1e bf 0c 08 12 bc bf a1 94 3d 19 a3 3f bd
       -0.61769414 -0.008913051 0.07257413 -0.0467864
000220 75 3e 90 3e 43 78 85 be 44 6b db be aa 02 5b bd
       0.2817265 -0.26068315 -0.42855275 -0.053469338
000230 90 07 cd be 81 37 db be c0 66 79 3d b1 fe 3e 3e
       -0.40044832 -0.42815784 0.060889006 0.18651845
000240 12 2b 17 3e ec 88 50 3e 76 4f 6d 3d 52 9e f8 bc
       0.14762524 0.20364732 0.057937108 -0.03034893
000250 33 ad 96 3d 7d d8 9f bd 6e 0a c0 be 9c d5 1b 3d
       0.07357254 -0.07804964 -0.37507957 0.03804551
000260 6e fb 7a 3d 53 ff b1 3e 85 92 39 be cb 57 36 bd
       0.06127494 0.3476511 -0.18122299 -0.04451732
000270 cc 6c 84 3e 8d e3 84 be 6f ba 9f 3e 06 fb 9d be
       0.25864255 -0.25954857 0.31196925 -0.30855578
000280 d8 8f d1 be 8e a6 52 3e 41 b0 b7 be 9c ac 85 3c
       -0.40930057 0.20571348 -0.3587666 0.016317658
000290 e9 6d 88 3e 34 a8 bd 3e 0c 5e a3 3e 7e 46 84 bd
       0.26646355 0.3704239 0.3190769 -0.06458758
0002a0 98 b9 a4 3c 9c ae 32 be c8 f3 83 3e 47 19 fc 3b
       0.02010803 -0.1744942 0.25771928 0.007693443
0002b0 d8 d8 46 bc 69 fc 38 be 6d 82 83 3e cc 91 9d 3e
       -0.0121366605 -0.18065037 0.25685444 0.30775297
0002c0 b3 aa f2 be 90 76 81 3e 28 86 8e 3e 21 4a ef 3a
       -0.47395858 0.25285769 0.27836728 0.0018256345
0002d0 10 a7 1f be 69 44 6d bd 73 4a a7 be 63 58 05 bd
       -0.15591073 -0.05792657 -0.32673988 -0.032554995
0002e0 ab bc e4 bd 1a 4a ae 3e 2d 25 e2 3e 25 82 8b bb
       -0.11168798 0.3404091 0.44168988 -0.004257458
0002f0 b1 f3 8e 3e a4 81 5b be ab cd 79 bd 31 3d eb 3d
       0.27920297 -0.21436173 -0.060987156 0.11486281
000300 d8 e1 07 be 6d 23 5b 3b 59 bf 2e be 6b 61 7e bd
       -0.13269746 0.0033437863 -0.17065181 -0.062104624
000310 4b 7e b1 3e 62 6e ec be 12 d3 d6 be 7c be de 3d
       0.34666666 -0.46177965 -0.4195791 0.10876176
000320 c3 10 34 be 04 63 76 bd e3 92 9f be 0d 89 6f 3e
       -0.17584519 -0.060153022 -0.31166753 0.23392124
000330 e2 1c 9d 3d 39 35 6b be a8 4b af 3e 4d 8d 90 bd
       0.076715246 -0.22969522 0.3423741 -0.07058201
000340 ef b2 05 3e c0 04 1c 3d 17 16 7b bd 2e cc 8d be
       0.13056539 0.038090467 -0.061300363 -0.2769484
000350 2a fe 87 3e ba 66 1e bf a7 81 65 3e 1a fd b4 3d
       0.265611 -0.618755 0.2241274 0.08837338
000360 05 da b6 bd 22 a3 b6 be d3 29 2c be 7d d8 b3 3c
       -0.08928303 -0.35671335 -0.1681283 0.021953816
000370 01 a0 49 bd 0b a9 46 be bb be e5 bc 2a f5 a9 3e
       -0.049224857 -0.19400422 -0.028045049 0.33194858
000380 84 cb 93 3b 0f d2 40 be ca 4a 66 3b a2 46 19 be
       0.004510345 -0.18830131 0.0035139793 -0.1496835
000390 ac 2c f2 be ae 13 9e bd e5 79 1b bf 8b 42 22 be
       -0.47299707 -0.07718597 -0.6073287 -0.15845697
0003a0 6e 91 d9 3b c9 1d 98 3e 9f e1 9a 3e d3 ae cd be
       0.006639651 0.29710224 0.3025026 -0.40172443
0003b0 db f7 1d 3e a6 ce b0 be 94 36 f5 3c e4 75 09 3d
       0.1542658 -0.3453266 0.029933251 0.033559695
0003c0 52 1f b6 3e be 15 15 3f 3b 86 28 bd 7c 06 c9 3e
       0.3557077 0.582363 -0.041143637 0.3926276
0003d0 c5 cf 8d be c2 60 cb bd ad e1 8a 3e c0 1a 01 3f
       -0.27697578 -0.099305645 0.27125302 0.5043144
0003e0 6d 91 b6 be dd be 54 3e 86 40 ed bc c2 2d 8e 3e
       -0.35657826 0.20775934 -0.028961431 0.27769285
0003f0 9d a6 8b 3e 82 2d 55 3d f2 b9 80 be ad 74 98 3d
       0.27275553 0.052045353 -0.25141865 0.07444129

linear2.bias f4 [3]
000000 23 5a 28 3e 17 b6 f1 bc bd 13 6c 3d
       0.16440634 -0.029505773 0.05763601
